data.pth (torch, 13975 bytes, 6 tensors)

l1.weight f4 [8, 245]
000000 f2 a7 93 3e df 53 44 3f 09 0c 0b 3f 6f d5 76 3e
       0.2883907 0.7669048 0.5431524 0.24104856
000010 d7 39 75 be f3 08 0b 3f a8 4a 18 3f b4 fc 34 3e
       -0.23947845 0.5431053 0.59488916 0.17674524
000020 f8 be d3 3e 4f 16 08 3e 4e 68 4a 3e 3b 5e 1c 3f
       0.41356635 0.1328976 0.19766352 0.61081284
000030 9e 77 72 3e d6 95 06 be bf 42 0c be 5a b7 cb 3e
       0.23678443 -0.13143095 -0.13697337 0.39788324
000040 4c 21 cf 3e d3 b0 c3 3e 80 8f 60 bb ec 74 71 3e
       0.4045509 0.38220844 -0.003426522 0.23579758
000050 84 82 01 3f 45 b9 0d be cf c6 09 bf d7 6b 30 3e
       0.50589776 -0.13840206 -0.5381898 0.17228638
000060 ad 1b 98 3e 2c 10 19 3e c2 4b 9c 3f 2d fa 2a 3d
       0.29708615 0.14947575 1.221062 0.041742492
000070 af 96 84 3f 21 ac 1d be d5 44 a9 3e da 3d 01 bd
       1.0358485 -0.15397693 0.33060327 -0.031553127
000080 5a 45 2f 3f fc 3c 4a 3e c2 58 51 be 11 5a 12 3f
       0.684652 0.19749826 -0.20444015 0.5716868
000090 80 7f c1 3e 67 73 24 bf 40 f4 19 3f c8 2a 5d 3f
       0.37792587 -0.6423859 0.6013832 0.86393404
0000a0 98 fb 55 3d 5a 75 a7 3e de 2a dd 3d 27 3a 34 3e
       0.05224189 0.3270672 0.10799192 0.17600308
0000b0 f0 8b 98 be 2e 1d f6 3e 2f 36 ad bc 68 a8 7e 3e
       -0.29794264 0.48069137 -0.021144 0.2486893
0000c0 22 32 e6 3e e4 33 f2 3e 6d 65 8f 3e c4 47 5c 3d
       0.44960123 0.47305214 0.2800707 0.05377938
0000d0 3b ba 20 3e ad e7 33 3e 12 bf a0 3e 8a 75 fa 3d
       0.15696041 0.17568846 0.31395775 0.1222945
0000e0 f3 ef c0 3e 59 cc 7c 3e 82 45 6b 3e 0d 5b 0c 3f
       0.37683067 0.24687327 0.22975734 0.5482643
0000f0 b7 9f 26 3e bf 70 2f 3f 41 81 b7 3e 1b 7c 93 3f
       0.16271864 0.6853141 0.358408 1.1522249
000100 58 ec 56 3f 4a 58 e6 3e 65 99 e2 3e 5f 3a 1b 3b
       0.8395438 0.44989234 0.44257656 0.0023685915
000110 1b e9 e9 3e d5 89 19 3d 33 ad 35 bf fc 24 39 3e
       0.45685658 0.037484962 -0.70967406 0.18080515
000120 03 00 07 3f 7e 7e bb 3e 1e 2c ba 3e 2a ca 64 3e
       0.5273439 0.36619943 0.36361784 0.22342744
000130 b0 40 29 3d 6b 17 49 3f 85 94 4c 3e 7d 6e f4 3d
       0.041321456 0.7855136 0.1997853 0.119351365
000140 6c 08 d3 3f 21 ce be 3e cb 27 83 3e 17 35 34 bd
       1.6486945 0.3726664 0.25616297 -0.043995943
000150 66 67 cd 3f 2c e0 1d 3f 68 04 91 3d 20 8e 49 3f
       1.604718 0.61670184 0.070809186 0.7873249
000160 e3 6c 20 3f ac d9 26 bf 81 6b 03 3f 10 61 3d 3e
       0.6266615 -0.6517589 0.5133591 0.18494058
000170 21 a4 5f 3f 2d 93 ba 3e 59 31 e8 3d 73 49 b2 3f
       0.87359816 0.3644041 0.11337537 1.3928665
000180 94 0c b5 bf df b3 23 3e 6d 7b 89 be d6 4b 14 3f
       -1.4144464 0.15986584 -0.2685198 0.57928216
000190 ac aa da 3e 51 0f 14 3f cc 3e f1 3e e2 d4 7e 3e
       0.42708337 0.5783587 0.47118223 0.24885896
0001a0 87 15 e0 3e 41 ee cb 3e 61 cc a3 3e e5 5b 98 3e
       0.43766424 0.3983021 0.31991866 0.2975761
0001b0 f9 93 0d 3e 27 51 74 3e 8b 71 ba 3d 46 64 c0 be
       0.13825978 0.23859082 0.09103688 -0.37576503
0001c0 b2 b9 42 3e 54 cc 5b 3e c4 ce 07 3e 19 3f 57 3f
       0.1901615 0.21464664 0.13262469 0.84080654
0001d0 35 ea 8c 3e e5 90 16 3f ca 0b 34 be aa 52 14 3f
       0.27522436 0.5881484 -0.17582622 0.57938635
0001e0 4a 95 27 3e 86 46 38 3f 8f a6 32 3e f5 b0 4c be
       0.16365543 0.7198261 0.1744635 -0.19989379
0001f0 3f d4 0b be 63 83 bc 3e d2 e9 e8 be 0b b0 70 bf
       -0.13655184 0.3681899 -0.4549089 -0.9401862
000200 44 a8 8d be 8c 1f 31 3f c1 38 c0 be d4 74 20 bf
       -0.2766744 0.6918876 -0.375433 -0.62678266
000210 a2 39 16 3f e0 a4 dc 3d 63 22 19 3e 29 de b9 3d
       0.5868169 0.10773635 0.14954524 0.09075577
000220 0b 12 2d 3f 7f 9b af 3e 96 56 c7 3e 1f 17 7d 3e
       0.67605656 0.34298322 0.38933247 0.24715851
000230 b2 29 4d 3e cd e0 81 3e 56 a2 81 be 8b 05 02 3e
       0.20035437 0.25366822 -0.25319165 0.12697427
000240 20 38 38 bd d4 63 10 3f cb 21 1c bf ca ae da 3f
       -0.0449754 0.56402326 -0.60989064 1.7084591
000250 f5 4f 9d 3e e5 8f ff 3d 9e 57 c0 3d 20 86 82 3f
       0.30725065 0.124786176 0.09391712 1.0197182
000260 b8 26 84 3e 56 42 6a bd 37 13 1f be 5b e2 ce 3e
       0.2581079 -0.05719217 -0.15534674 0.4040707
000270 75 93 6f be 02 b4 fd 3e f8 9f 0b 40 53 6d d7 3d
       -0.23396094 0.49551398 2.1816387 0.10518899
000280 a5 6d 4c 3f 36 99 2b 3c 4f 96 f1 bd 06 40 89 3d
       0.79854804 0.01047354 -0.11796247 0.067016646
000290 35 ef 5e 3e 7f da 2c 3f 23 31 ac 3d a0 84 b4 be
       0.21770938 0.675209 0.084078096 -0.35257435
0002a0 a9 e2 71 3d 9a 7d 8e 3f 23 23 d0 3d c6 7b 6e 3d
       0.05905405 1.113208 0.10162952 0.05822351
0002b0 83 0f b4 3e 26 6f 28 3f f5 56 3e be 0c 2b 8e 3d
       0.35168085 0.657946 -0.18587859 0.06941804
0002c0 a5 61 c3 3f 3f 42 ea 3e b4 22 87 3b e8 45 ae 3e
       1.5264174 0.45753667 0.00412401 0.3403771
0002d0 b1 46 32 3b 26 74 83 3f 16 cb 60 be b9 af 80 3d
       0.002720278 1.0269821 -0.21952471 0.062835164
0002e0 ea 16 27 3f ca 37 04 3f f2 3a fc 3d 39 42 5a 3e
       0.6526934 0.5164763 0.123159304 0.21314324
0002f0 8b 55 ef 3d 6e 98 52 3d 38 d3 6f 3f e3 b0 05 3e
       0.11686238 0.0514149 0.9368167 0.13055758
000300 54 f5 20 3f c7 5d cc 3f f7 99 eb bd cb 94 e6 3e
       0.6287434 1.5966119 -0.11503976 0.45035395
000310 79 7a c1 3d 24 ce f4 3e 6f 5f e8 3e 9e f1 05 3e
       0.09447188 0.47813523 0.4538531 0.13080451
000320 71 14 aa 3d 3c 5c c6 3e 40 04 a1 3e 4f 8f b7 3d
       0.0830468 0.38742244 0.31448555 0.08962881
000330 26 59 4c bd 68 e8 08 3e 5f 64 0f 3e 67 3d fb 3e
       -0.049889706 0.13369906 0.14003132 0.49070284
000340 d5 32 67 be fb 58 03 bc 18 77 7f 3f 1d 0d fb 3d
       -0.22577985 -0.00801682 0.997911 0.122583605
000350 6b cf 80 3e c3 f8 dd 3e 23 a4 d6 3f c6 bf bb 3e
       0.25158247 0.43353853 1.676884 0.3666975
000360 2a d3 ff 3e 1f a4 88 3b dc 06 3f 3e af f5 b7 3f
       0.49965793 0.0041699554 0.1865496 1.4371852
000370 7d d7 1c 3e 20 fa c9 3e 77 2a 0f be 45 ed 43 3d
       0.15316577 0.39448643 -0.13981043 0.0478337
000380 38 d8 81 3f 6c ec d5 3d 21 b8 21 3e 53 59 f7 3d
       1.014411 0.104454845 0.15792896 0.12077584
000390 db d6 d3 3f 6a 5a 92 3f b5 29 8e 3e 04 ad f7 3e
       1.6549944 1.1433842 0.27766195 0.48374188
0003a0 a0 2d 36 3f 03 94 2c 3f 09 d0 d9 3e 97 23 37 be
       0.7116337 0.6741335 0.4254153 -0.1788467
0003b0 08 71 04 3f fd 38 dc 3e 60 7b 7c 3f 3c 84 76 3e
       0.5173497 0.4301223 0.98625755 0.24073881
0003c0 74 23 28 3e b4 a6 af bf b3 5e be 3f 4d 1e 89 be
       0.16419774 -1.3722749 1.487265 -0.2678093
0003d0 31 1c 52 3f d7 fd 6a 3e 45 2e 7f 3f 93 f0 46 3f
       0.82074267 0.22948395 0.99679977 0.7771084
0003e0 43 f9 05 bf ca f7 0a 3d a3 66 3d 3e 76 1b 92 bc
       -0.5233347 0.033927716 0.18496184 -0.01783536
0003f0 94 ae 73 3d bb 76 e3 3e 86 da a2 3e 0a 75 c4 bd
       0.059492663 0.44426522 0.31807345 -0.09592636

l1.bias f4 [8]
000000 c0 7c 55 3f 26 6b d6 3f d3 63 b5 bd 6c 98 d7 3f
       0.8339348 1.6751449 -0.088569306 1.684339
000010 b7 32 26 3f 08 49 ef 3f 2e 7b 33 3f 55 56 25 40
       0.64921135 1.8694162 0.7010983 2.5833943

l2.weight f4 [8, 8]
000000 ae 28 fe 3f 1e 69 57 3f a2 ef ac 3e 10 3e 40 be
       1.9856164 0.8414477 0.33776575 -0.18773675
000010 7e 93 83 bd 34 d8 5c 3d 8f a8 9f bf e4 00 b7 3f
       -0.06424616 0.053917125 -1.2473315 1.4297147
000020 7b fa 10 40 90 9e d0 bd dc 54 ab 3e fc 3a 76 3b
       2.265288 -0.101864934 0.3346318 0.0037571779
000030 21 57 20 40 3b 33 57 40 df fb 52 3f f4 03 fd 3f
       2.505318 3.3625019 0.82415575 1.9766831
000040 b5 ec 5d bd 80 e8 82 be d8 3c cf bd 53 0c dd 3d
       -0.05418082 -0.25568008 -0.10119027 0.10793366
000050 fb 0c 7f be aa 7a 8a be 20 71 3a 3e d9 97 4d be
       -0.24907295 -0.2704671 0.18207216 -0.20077457
000060 c1 53 a5 3f 56 55 2c 3d c0 0e 5e 3e f1 12 ce 3f
       1.2916185 0.04207357 0.21685314 1.609953
000070 7f be 1f 40 c7 d8 35 40 dc 26 17 3f c0 70 20 40
       2.496002 2.841356 0.5904367 2.5068817
000080 c9 a5 90 3e 34 0b 98 bf ab 32 85 be 5b 89 92 3f
       0.28251484 -1.1878419 -0.2601522 1.1448168
000090 c7 f9 f1 3f 68 46 37 bf f8 45 80 bf 5a 55 d1 3f
       1.8904351 -0.71591806 -1.0021353 1.6354172
0000a0 71 00 ff ba bd 4c 3a 40 84 a0 87 be 6e b3 1b 40
       -0.0019455088 2.9109337 -0.2648965 2.4328265
0000b0 fa 30 be bd fb b0 56 40 5f 64 c5 bf b4 47 ac 3f
       -0.09286685 3.354552 -1.5421256 1.3459382
0000c0 9c 4f 0b 40 6b 40 01 40 e4 f9 b3 be 1a 2d 49 3f
       2.176734 2.0195568 -0.3515159 0.78584445
0000d0 8c 40 9d be b9 f0 c9 3f 7e b1 e8 bf 6b 7f 69 3f
       -0.30713308 1.5776588 -1.8179166 0.9121005
0000e0 9e 81 82 3f f9 e7 34 40 f8 9f f3 bb 77 8b 63 40
       1.0195806 2.8266585 -0.0074348412 3.5553873
0000f0 b6 6a 54 be 3c 9e 9e bf 4d 06 75 40 5e 0c f4 3f
       -0.20743832 -1.2392039 3.8285096 1.9066274

l2.bias f4 [8]
000000 14 47 5e be ef 42 e5 3e 3d e3 a1 be d0 a1 0e bf
       -0.21706802 0.4477763 -0.31618682 -0.55715656
000010 0e 16 63 3f e3 a9 8b 3f 01 f1 a8 3f 81 fb f3 3e
       0.8870553 1.091122 1.3198549 0.4765282

l3.weight f4 [11, 8]
000000 81 f2 9f bf c1 91 5a bf ef ec 62 be ff ca 28 bf
       -1.2495881 -0.8537865 -0.22160695 -0.6593475
000010 03 f1 f3 be 53 0e 1d be b5 a2 dc bf 1b 3a c6 bf
       -0.47644815 -0.15337496 -1.7237154 -1.5486482
000020 7b d6 ee 3e 2e ef 0b c0 0a 47 ba be 99 58 c1 bf
       0.4664801 -2.1864734 -0.36382324 -1.5105163
000030 0c 70 3a bf fa db 15 bf 15 22 93 be cf 80 d3 be
       -0.7282722 -0.5853878 -0.2873694 -0.4130921
000040 20 76 a1 3e 83 63 06 3f 06 f9 90 be 60 f1 77 be
       0.31535435 0.5249559 -0.2831499 -0.24213171
000050 2e a3 3f 3e 87 9c 13 c0 43 cb 40 bf 9b 34 46 c0
       0.18714592 -2.3064287 -0.7531015 -3.0969608
000060 86 e4 0b c0 d2 68 0a c0 de 5a 99 be ea 94 57 c0
       -2.185823 -2.1626477 -0.2995214 -3.368464
000070 7b 71 fe bf a2 82 bc 3f 18 20 85 3f 91 47 1d bf
       -1.9878381 1.4727366 1.0400419 -0.61437327
000080 af 39 73 c0 32 e8 0f be c3 39 9c bd 74 1a ea be
       -3.8003957 -0.14053419 -0.07628205 -0.45723307
000090 7a 6c 52 c0 56 4a 0b 3f a7 18 34 bd e8 0c 27 c0
       -3.287871 0.544103 -0.043968823 -2.6101627
0000a0 b4 e9 40 3f ae d8 01 bf a0 c1 91 bc c5 3d 87 bf
       0.753566 -0.5072125 -0.017792523 -1.0565726
0000b0 ca 70 05 3f d7 c3 4d c0 b3 af 6b be ed e0 dd be
       0.5212523 -3.215078 -0.23016243 -0.43335667
0000c0 0b 20 11 c0 fd 31 23 bf 45 a7 1e 3e fc 11 12 bf
       -2.2675807 -0.6374815 0.15493496 -0.5705869
0000d0 c5 94 81 3f 43 47 b7 bf 83 f7 5a c0 ee 85 a7 3e
       1.0123526 -1.4318622 -3.421357 0.32719368
0000e0 6b 0c 11 c0 f2 63 4a 3f 92 d1 70 be 27 90 84 3e
       -2.266383 0.79058754 -0.23517445 0.2589123
0000f0 9f 2d 80 3f 7a bd d8 bf 92 e2 78 c0 eb f0 cd bf
       1.0013922 -1.6932824 -3.8888288 -1.6089147
000100 e9 25 21 c0 c1 4b 23 c0 27 f4 62 3e 71 59 45 bf
       -2.5179389 -2.5514987 0.22163449 -0.770896
000110 5a 28 bd bf fa ca 2b 3e 4a 1b ad bf ae cb aa 3e
       -1.4777939 0.16776648 -1.3523953 0.3335852
000120 46 fd dc be 37 40 23 bf 17 0e 1c be 9a 0f fe bf
       -0.43161982 -0.6376986 -0.1523975 -1.9848511
000130 05 e6 a6 bf 4c c7 00 c0 d2 0f 5a c0 62 3d 06 40
       -1.3038946 -2.012164 -3.4072156 2.0974965
000140 bc 53 a5 be 47 c4 77 3d 7c a7 5e bc b0 94 f1 be
       -0.32290447 0.06048992 -0.013589736 -0.47183752
000150 93 cf 18 c0 c3 1e 04 c0 aa 7e 01 c0 c5 d9 06 be
       -2.3876693 -2.0643775 -2.023356 -0.1316901

l3.bias f4 [11]
000000 c9 e8 83 bf 8b 62 8b bf 89 5a db bd 66 00 6d 3f
       -1.0305415 -1.0889448 -0.107106276 0.9257873
000010 4f ca b1 3e d9 e1 db be 3a 39 44 be 63 61 9a 3d
       0.34724662 -0.42945746 -0.19162455 0.07538106
000020 20 26 50 bf 5c 02 89 3f 5a c8 36 bf
       -0.81308174 1.0703845 -0.7139946
